…
                    "x1": "ComplexInterceptDefaultTabular12",
                    "x2": "ComplexShiftDefaultTabular12",
                    "x3": "LinearShift",
                    "x4": "ComplexShiftDefaultTabular11",
                    "x5": "ComplexShiftDefaultTabular",
                    "x6": "ComplexShiftDefaultTabular22",
                    "x7": "ComplexShiftDefaultTabular21",
                    "x8": "ComplexShiftDefaultTabular",
                    "x9": "ComplexInterceptDefaultTabular11"
                }
            }
        },
        "output": {
            "x1": "TramModel(\n  (nn_int): SimpleIntercept(\n    (fc): Linear(in_features=1, out_features=20, bias=False)\n  )\n)",
            "x2": "TramModel(\n  (nn_int): SimpleIntercept(\n    (fc): Linear(in_features=1, out_features=20, bias=False)\n  )\n)",
            "x3": "TramModel(\n  (nn_int): SimpleIntercept(\n    (fc): Linear(in_features=1, out_features=20, bias=False)\n  )\n)",
            "x4": "TramModel(\n  (nn_int): SimpleIntercept(\n    (fc): Linear(in_features=1, out_features=20, bias=False)\n  )\n)",
            "x5": "TramModel(\n  (nn_int): SimpleIntercept(\n    (fc): Linear(in_features=1, out_features=20, bias=False)\n  )\n)",
            "x6": "TramModel(\n  (nn_int): SimpleIntercept(\n    (fc): Linear(in_features=1, out_features=20, bias=False)\n  )\n)",
            "x7": "TramModel(\n  (nn_int): SimpleIntercept(\n    (fc): Linear(in_features=1, out_features=20, bias=False)\n  )\n)",
            "x8": "TramModel(\n  (nn_int): SimpleIntercept(\n    (fc): Linear(in_features=1, out_features=20, bias=False)\n  )\n)",
            "x9": "TramModel(\n  (nn_int): SimpleIntercept(\n    (fc): Linear(in_features=1, out_features=20, bias=False)\n  )\n)",
            "x10": "TramModel(\n  (nn_int): ComplexInterceptDefaultTabular(\n    (fc1): Linear(in_features=2, out_features=8, bias=True)\n    (relu1): ReLU()\n    (fc2): Linear(in_features=8, out_features=8, bias=True)\n    (relu2): ReLU()\n    (fc3): Linear(in_features=8, out_features=20, bias=False)\n  )\n  (nn_shift): ModuleList(\n    (0): ComplexShiftDefaultTabular(\n      (fc1): Linear(in_features=1, out_features=64, bias=True)\n      (relu1): ReLU()\n      (dropout1): Dropout(p=0.3, inplace=False)\n      (fc2): Linear(in_features=64, out_features=128, bias=True)\n      (relu2): ReLU()\n      (dropout2): Dropout(p=0.3, inplace=False)\n      (fc3): Linear(in_features=128, out_features=64, bias=True)\n      (relu3): ReLU()\n      (dropout3): Dropout(p=0.3, inplace=False)\n      (fc4): Linear(in_features=64, out_features=1, bias=False)\n    )\n    (1-2): 2 x ComplexShiftDefaultTabular(\n      (fc1): Linear(in_features=2, out_features=64, bias=True)\n      (relu1): ReLU()\n      (dropout1): Dropout(p=0.3, inplace=False)\n      (fc2): Linear(in_features=64, out_features=128, bias=True)\n      (relu2): ReLU()\n      (dropout2): Dropout(p=0.3, inplace=False)\n      (fc3): Linear(in_features=128, out_features=64, bias=True)\n      (relu3): ReLU()\n      (dropout3): Dropout(p=0.3, inplace=False)\n      (fc4): Linear(in_features=64, out_features=1, bias=False)\n    )\n    (3): ComplexShiftDefaultTabular(\n      (fc1): Linear(in_features=1, out_features=64, bias=True)\n      (relu1): ReLU()\n      (dropout1): Dropout(p=0.3, inplace=False)\n      (fc2): Linear(in_features=64, out_features=128, bias=True)\n      (relu2): ReLU()\n      (dropout2): Dropout(p=0.3, inplace=False)\n      (fc3): Linear(in_features=128, out_features=64, bias=True)\n      (relu3): ReLU()\n      (dropout3): Dropout(p=0.3, inplace=False)\n      (fc4): Linear(in_features=64, out_features=1, bias=False)\n    )\n    (4): LinearShift(\n      (fc): Linear(in_features=1, out_features=1, bias=False)\n    )\n  )\n)"
        }
    }
}